…
    "libraries": [],
    "code": "series: [{\n    type: 'gantt',\n    name: 'Task',\n    data: [{\n        id: 'task-1',  // 每个数据点需要指定唯一的 id\n        name: '任务1',\n        start: Date.UTC(2022, 0, 1),\n        end: Date.UTC(2022, 0, 3)\n    },{\n        id: 'task-2',  // 每个数据点需要指定唯一的 id\n        name: '任务2',\n        start: Date.UTC(2022, 0, 3),\n        end: Date.UTC(2022, 0, 5)\n    }]\n}]",
    "filename": "32a74dc75413bc65918759c785757e5d_4.erl"
  },
  {
    "conversation_hash": "d52525b28ee374a8e6dbfdd85ae4dfa2",
    "code_index": 0,
    "language": "Erlang",
    "libraries": [],
    "code": "A (5, 7, 9) -> L (2, 3, 4)\nA (5, 7, 9) -> B (1, 2, 3)\nB (1, 2, 3) -> C (2, 4, 6)\nB (1, 2, 3) -> F (2, 3, 5)\nB (1, 2, 3) -> P (2, 4, 5)\nC (2, 4, 6) -> D (2, 3, 4)\nD (2, 3, 4) -> E (3, 4, 7)\nF (2, 3, 5) -> G (1, 2, 3)\nG (1, 2, 3) -> H (3, 6, 7)\nI (5, 7, 10) -> J (2, 4, 6)\nK (2, 3, 4) -> N (2, 4, 5)\nK (2, 3, 4) -> O (2, 4, 5)\nL (2, 3, 4) -> M (3, 6, 7)\nM (3, 6, 7) -> N (2, 4, 5)\nP (2, 4, 5) -> Q (4, 8, 10)",
    "filename": "d52525b28ee374a8e6dbfdd85ae4dfa2_0.erl"
  },
  {
    "conversation_hash": "b8d052008f8a127d10d06df2f3430321",
    "code_index": 3,
    "language": "Erlang",
    "libraries": [],
    "code": "yAxis: {\n   type: 'category',\n   categories: ['Task 1', 'Task 2', 'Task 3'],\n   reversed: true,\n},",
    "filename": "b8d052008f8a127d10d06df2f3430321_3.erl"
  },
  {
    "conversation_hash": "b8d052008f8a127d10d06df2f3430321",
…
r by another player:\n    cancel event if {pvp} is false and player has no permission \"event.pvpbypass\"\n\non enable:\n    set {pvp} to true",
    "filename": "7a7d497763c5b400d0a629ab23a9ae07_0.erl"
  },
  {
    "conversation_hash": "286bbbfd62c546f16d5e620762e655c3",
    "code_index": 0,
    "language": "Erlang",
    "libraries": [],
    "code": "=================================================================\nLayer (type:depth-idx)                   Output Shape         Param #\n=================================================================\n├─Sequential: 1-1                         [-1, 64, 160, 160]   --\n│    └─ConvBnAct: 2-1                     [-1, 32, 320, 320]   864\n│    └─Depthwise: 2-2                     [-1, 32, 320, 320]   288\n│    └─ConvBnAct: 2-3                     [-1, 64, 320, 320]   2,304\n│    └─Depthwise: 2-4                     [-1, 64, 160, 160]   576\n│    └─ConvBnAct: 2-5                     [-1, 64, 160, 160]   4,608\n├─Sequential: 1-2                         [-1, 128, 80, 80]    --\n│    └─Depthwise: 2-6                     [-1, 64, 160, 160]   576\n│    └─ConvBnAct: 2-7                     [-1, 128, 160, 160]  8,192\n│    └─DWConvBnAct: 2-8                   [-1, 128, 80, 80]    1,152\n│    └─ConvBnAct: 2-9                     [-1, 128, 80, 80]    16,384\n├─Sequential: 1-3                         [-1, 256, 40, 40]    --\n│    └─DWConvBnAct: 2-10                  [-1, 128, 80, 80]    1,152\n│    └─ConvBnAct: 2-11                    [-1, 256, 80, 80]    32,768\n│    └─DWConvBnAct: 2-12                  [-1, 256, 40, 40]    2,304\n│    └─ConvBnAct: 2-13                    [-1, 256, 40, 40]    65,536\n├─Sequential: 1-4                         [-1, 512, 20, 20]    --\n│    └─DWConvBnAct: 2-14                  [-1, 256, 40, 40]    2,304\n│    └─ConvBnAct: 2-15                    [-1, 512, 40, 40]    131,072\n│    └─DWConvBnAct: 2-16                  [-1, 512, 20, 20]    4,608\n│    └─ConvBnAct: 2-17                    [-1, 512, 20, 20]    262,144\n│    └─DWConvBnAct: 2-18                  [-1, 512, 10, 10]    9,216\n├─Sequential: 1-5                         [-1, 1024, 10, 10]   --\n│    └─ConvBnAct: 2-19                    [-1, 512, 20, 20]    524,288\n│    └─DWConvBnAct: 2-20                  [-1, 512, 10, 10]    4,608\n│    └─ConvBnAct: 2-21                    [-1, 1024, 10, 10]   524,288\n├─Sequential: 1-6                         [-1, 1024, 10, 10]   --\n│    └─ConvBnAct: 2-22                    [-1, 1024, 10, 10]   9,437,184\n│    └─ConvBnAct: 2-23                    [-1, 1024, 1, 1]     10,485,760\n│    └─ConvBnAct: 2-24                    [-1, 1024, 1, 1]     943,820\n=================================================================\nTotal params: 22,495,236\nTrainable params: 22,495,236\nNon-trainable params: 0\n=================================================================",
    "filename": "286bbbfd62c546f16d5e620762e655c3_0.erl"
  },
  {
    "conversation_hash": "42e17c1f5465c771e5f01503934ec3cc",
    "code_index": 1,
    "language": "Erlang",
    "libraries": [],
…
